pytorch-classifier.pt (torch, 22807 bytes, 6 tensors)

d1.weight f4 [60, 42]
000000 38 91 ef 3d 8e 9d b8 bd 6e 99 f9 3c 55 8f 61 3e
       0.1169762 -0.09014426 0.030468669 0.22027333
000010 e9 36 ef bc cb 12 a4 3e aa 51 94 3d f8 45 b5 3e
       -0.029200988 0.32045588 0.07242139 0.35404944
000020 1b 50 4c bd fa c0 c7 3e 3d 65 02 3e 93 7f 8b 3c
       -0.049881082 0.39014417 0.12733932 0.017028606
000030 7b c8 23 3d 92 99 52 bb f9 3f 8d bc ad 63 96 be
       0.039986115 -0.0032134992 -0.017242419 -0.29372922
000040 e8 7b 13 3d 5e 55 0d bf 6c 71 66 3e 3e 12 15 3d
       0.036006838 -0.55208385 0.22504205 0.03639435
000050 4c 41 c6 bd 36 29 c5 3c d4 50 3b bb 8a 3c e4 bc
       -0.09680423 0.024067502 -0.0028582113 -0.027860899
000060 11 19 c9 3b 71 60 05 be 63 ce 27 3e 37 e2 d9 3d
       0.0061370214 -0.1302507 0.16387324 0.1063885
000070 8f b8 2d be eb be 71 3e de 88 74 3d e1 ad 18 3e
       -0.16964935 0.23607986 0.05970084 0.1491008
000080 2a b7 22 3e ef 37 b2 be 3a 8c df bd 90 76 d6 3c
       0.15890184 -0.348083 -0.10915418 0.026179582
000090 15 70 09 3e 2d 66 72 3e e0 6b 21 39 23 4a 21 3e
       0.13421662 0.2367179 0.00015394343 0.15750937
0000a0 d5 09 2b 3d ff d6 80 3d bc dd 6b 3e f3 22 f4 3d
       0.041757423 0.06291007 0.23033804 0.119207285
0000b0 a3 64 58 3d 32 e6 8d 3e a6 39 7f 3a 43 3d 95 3e
       0.05283035 0.27714688 0.00097360683 0.291483
0000c0 e7 31 ba b8 17 3c 87 3d 48 5a 89 3c d0 a3 dd be
       -8.878466e-05 0.06603258 0.016766682 -0.43289042
0000d0 ce e7 a2 3e cd 8b cb 3e 35 0e 88 3e 7d 71 11 3f
       0.31817478 0.39755097 0.2657334 0.56813794
0000e0 be 4f 9c 3d 0d fd e9 be 23 f4 04 3e 2a 3a 36 bf
       0.07632397 -0.45700875 0.12983756 -0.711825
0000f0 81 54 00 3e e2 f3 b2 3e f6 4f 4f 3e 29 71 02 3f
       0.12532236 0.34951693 0.20245346 0.5095392
000100 78 70 f8 3c 8a da bf 3d a2 78 b7 3d d6 91 54 3d
       0.030327067 0.09367855 0.08958556 0.051896892
000110 71 ec 6f 3d cb d4 63 3d 37 a4 40 3e 04 0f 0e 3e
       0.058575097 0.055622857 0.18812643 0.13872916
000120 cd 52 46 3e 95 9f fd bc 48 af 41 3e 08 66 84 bd
       0.19367523 -0.030959884 0.1891452 -0.064647734
000130 60 e4 df 3d 82 67 46 3e bf 31 95 bd e8 46 b8 3d
       0.10932231 0.19375423 -0.07284879 0.08997899
000140 7c cf b2 3c 86 a1 8d be 96 82 47 3e 26 11 8f be
       0.021827452 -0.27662295 0.19483408 -0.2794277
000150 66 e7 0e 3d 2c 42 84 bc ce 79 bd bc 0e 88 5a 3e
       0.034888647 -0.016144834 -0.02312937 0.21340963
000160 1f bb 4b 3e ab 51 cc 3d 64 d6 94 3e 06 79 b7 be
       0.198956 0.099765144 0.29069817 -0.3583452
000170 86 3d e0 3d a4 22 24 be 1f ad 8a be 3b e8 95 3e
       0.10949235 -0.1602884 -0.27085206 0.2927874
000180 7a 31 0c 3e cb 23 b7 bd a9 c4 b8 3d 0f 37 c5 be
       0.13690749 -0.08942374 0.09021885 -0.3851857
000190 03 a9 97 3e f8 5f e9 be 48 29 19 bd e4 d7 e5 3e
       0.29621133 -0.4558103 -0.037392884 0.44891274
0001a0 bf 6b b8 3c 35 f7 cd be e6 b2 71 3e 59 7c 90 bd
       0.022512315 -0.40227666 0.236034 -0.070549674
0001b0 12 07 7c 3d 66 59 7e 3d ed 70 48 3c 63 94 92 3e
       0.06153018 0.062096976 0.012233955 0.28628835
0001c0 2b 41 b4 3e 14 81 e2 be 3b 41 1d 3e fb 05 aa bd
       0.3520597 -0.44239104 0.15356915 -0.08301922
0001d0 8b 8d fe 3d 83 d8 19 bd c5 59 85 bd 55 96 55 be
       0.12429341 -0.037559997 -0.06511263 -0.20858128
0001e0 ad 57 9d 3e d5 40 c9 be 6f 8e be 3e 0e 51 9f be
       0.30730954 -0.39307275 0.37218043 -0.31116527
0001f0 e1 44 52 3d 2c fc e0 bd 93 56 04 3d 3f 1e 86 bd
       0.05133522 -0.10985598 0.032309126 -0.06548738
000200 5a c0 33 3e ad 95 fb 3d a3 71 d5 bb 64 97 88 3d
       0.17553845 0.12284408 -0.0065137907 0.066695005
000210 97 83 52 3e a1 0b d2 3e 0e a3 1b bd be 9b 77 3f
       0.2055801 0.41024497 -0.037997298 0.9672202
000220 a9 d1 a8 3d 3b e0 92 be d2 71 d0 bd f2 9c b3 be
       0.082431145 -0.286867 -0.101779595 -0.35080677
000230 7c 81 ea bc 90 9d bd 3e da c1 3a 3d 36 3e 52 3f
       -0.028626196 0.37034273 0.045595028 0.82126176
000240 e7 7e 07 3d 1a 88 42 be 00 f5 db 3c a7 6c 79 bd
       0.033080008 -0.18997231 0.026850224 -0.060894635
000250 99 0e 40 3d 9a 35 07 3e 73 4d 2d bd 81 2a 3c 3e
       0.04688892 0.13204041 -0.04231019 0.18375589
000260 39 b0 98 3c a3 63 66 bd 3b d3 2f be e9 98 69 bd
       0.018638717 -0.056247365 -0.17170422 -0.057030592
000270 4d 31 15 be c9 01 c2 3d 6b 88 71 3d 9b f2 de 3d
       -0.14569588 0.09472997 0.05896799 0.10886117
000280 9a 00 3f 3d b9 2d bf 3d aa 6f 7f 3d d9 60 84 3e
       0.046631433 0.09334893 0.06236235 0.2585514
000290 57 cd 1c be 53 71 92 3e a4 80 2f be 81 dd 89 3e
       -0.15312706 0.28602085 -0.17138916 0.26926807
0002a0 9c b7 66 be 81 59 1c 3e 4d f5 ed bd 3a 37 b6 3e
       -0.22530979 0.15268518 -0.11619053 0.3558901
0002b0 85 17 6e 3c 4b 75 b9 3e d3 cf 0d 3e bd 07 0c 3f
       0.014531975 0.362223 0.1384881 0.5469931
0002c0 0a 57 a0 3d c5 79 c0 3e 43 13 f9 3d 40 b8 57 3e
       0.078291014 0.37592903 0.12161877 0.2106638
0002d0 b5 73 ab bd 94 cb f1 3e a3 ed 26 be 6c 81 ac 3e
       -0.08371679 0.4722563 -0.16301589 0.3369249
0002e0 37 fd a5 bd 25 ec af 3e 46 cb f4 3d 4f 8a bd bd
       -0.081049375 0.3435985 0.11952834 -0.09254896
0002f0 1d 23 8e bd 66 35 d3 bc 87 0c 9b 3d b0 67 10 bf
       -0.06940291 -0.025782298 0.07570749 -0.56408215
000300 1a 4b dd 3c ab 2e 44 bf 9a 5b ab 3e 23 bd 9b 3c
       0.02701335 -0.7663371 0.33468324 0.019011086
000310 39 a4 9e bc 29 19 31 3e 4c cb ff 3d f8 7f 30 bf
       -0.019365417 0.17294754 0.12489948 -0.68945265
000320 7e bc a3 3d 68 bf 81 bf cb 2e 98 3e bf ae 92 3e
       0.079949364 -1.0136538 0.297232 0.28648946
000330 ef ed a6 bc 2d 9f c0 3e 9c 4e 1a be d1 44 dd bc
       -0.020377127 0.3762144 -0.1506905 -0.027010353
000340 eb c6 db bd 83 e1 a5 be 64 11 3f be 55 b0 0f 3d
       -0.107313 -0.32398614 -0.18658978 0.035080273
000350 04 0c c6 bc 20 a0 99 3c 56 c0 dd 3e 27 35 d2 bd
       -0.024175651 0.018753111 0.43310803 -0.10264044
000360 d0 cd b7 3e 65 d8 95 be dc b8 eb bd a3 ae ef 3e
       0.3589921 -0.29266658 -0.115098685 0.46812925
000370 40 fa cd bd 05 57 f7 3e 04 c2 99 bd df 58 89 bc
       -0.10057497 0.48308578 -0.07507709 -0.01676601
000380 f9 56 99 3d f4 2f aa be 26 b3 18 be 28 32 21 be
       0.07487292 -0.3323971 -0.1491209 -0.1574179
000390 d2 a1 26 3d cc 09 36 3f 91 d0 07 3d 9a 50 c6 ba
       0.040681668 0.711087 0.03315789 -0.0015130222
0003a0 0e c8 92 3e bb b4 b3 bd 41 03 4a bc 56 a2 86 bc
       0.28668255 -0.08774706 -0.012329877 -0.01643483
0003b0 99 43 ae be 8f e9 13 3f b8 dd 07 3e 14 7c 5f bd
       -0.34035948 0.5777826 0.13268173 -0.05456169
0003c0 29 5a ce bc f6 a0 e9 bd 67 9c c5 3d d9 05 0b be
       -0.025189476 -0.11407654 0.09648972 -0.1357645
0003d0 20 22 fa be 45 75 91 3e 41 99 81 bd c0 83 29 be
       -0.4885416 0.28409782 -0.06328059 -0.16554165
0003e0 8b 1e 2f bd f4 0b df bc 48 fb ab 3c 5a a2 4a be
       -0.042753737 -0.02722738 0.020993844 -0.19788495
0003f0 e8 01 cf bd 28 b6 fd 3d 06 b6 98 3d 93 88 4a 3b
       -0.101077855 0.12388259 0.07456593 0.0030904158

d1.bias f4 [60]
000000 7c a5 0a be a5 a6 81 3e 8c 5f 7a be 09 51 00 be
       -0.1353969 0.25322452 -0.2445051 -0.12530912
000010 63 76 0f bd ab ab 59 be 8a 29 7f be 00 c5 03 be
       -0.03502501 -0.21256892 -0.2491819 -0.12868118
000020 1f 18 ca bd 48 8f a8 3d 53 ef 05 bd be 01 19 be
       -0.09867882 0.08230454 -0.03269894 -0.14942071
000030 88 df cc bc dc 0c cd 3c a8 6e a6 3e e2 fc 0d be
       -0.025008932 0.025030546 0.325063 -0.13865998
000040 76 1d 40 be 79 c8 e5 bd 28 38 31 3e fb c3 0a be
       -0.18761238 -0.11219878 0.17306578 -0.13551323
000050 88 53 9d 3d f5 1c 05 bd 64 b7 8b 3e 34 9e c4 3d
       0.07681948 -0.03249832 0.27288353 0.09600487
000060 d3 27 3c 3e d7 d2 ea 3d ff 92 4a 3d 9c 22 b2 3c
       0.18374567 0.11465996 0.049456593 0.021745019
000070 a2 3a e9 3e 64 03 b8 be 79 55 f5 3d 5b 9b 0a 3e
       0.45552546 -0.35940087 0.11979193 0.13535826
000080 f8 d3 0a 3d 1a e5 5c 3d 90 39 f3 bd 06 91 d6 3d
       0.033893555 0.053929426 -0.118762136 0.1047688
000090 76 50 67 3c 2a e9 1b be 53 47 95 3d da 99 cd 3d
       0.0141183045 -0.15225664 0.07288995 0.100391105
0000a0 c7 d0 f9 3c 19 bc 3a be ee ed 82 bd 75 36 ca bd
       0.03049506 -0.18235816 -0.06393038 -0.09873668
0000b0 f4 af f1 bd f8 15 f7 bd a0 4a 27 3e a9 47 98 3d
       -0.118011385 -0.12064737 0.16337061 0.07435543
0000c0 db f1 3a 3d ea b7 cb 3d f3 0a f9 bc 0c 35 10 3e
       0.045640808 0.09947188 -0.030400729 0.14082736
0000d0 5a 9d 0f bc 79 51 82 bd 48 72 31 bc 95 25 3e be
       -0.008765543 -0.06363196 -0.010830469 -0.18569024
0000e0 41 50 9d bd 6a ba 79 3e ee 7e e9 bd e2 68 c1 3e
       -0.07681323 0.24387518 -0.11401163 0.37775332

d2.weight f4 [40, 60]
000000 92 4a 9d 3e 70 f2 83 3e 59 bd aa 3e 6c e5 37 be
       0.30720955 0.25770903 0.33347586 -0.17958611
000010 c8 cc 6b 3e e7 0f 04 3e 88 11 c2 3e 90 ea b9 bb
       0.23027337 0.12896691 0.37904 -0.005673714
000020 0c 7c cf 3d 6a 19 df 3e 96 79 aa bd 44 89 a1 bf
       0.10131082 0.43574077 -0.08323972 -1.2620015
000030 44 ab b0 3d 3c 28 23 3e da 8c ae bc ec 40 95 bc
       0.08626416 0.15933317 -0.021307398 -0.018219434
000040 3c 47 60 bf b7 76 20 bf 0d ea 62 be 4b 27 79 bd
       -0.87608695 -0.62681144 -0.22159596 -0.06082849
000050 b0 7a dd bb e3 60 01 3e 8f d0 87 3e de ad f8 be
       -0.0067590103 0.12634616 0.26526305 -0.4857015
000060 ed 37 21 bf e3 0c 5a be bc d7 09 bf 7b 40 11 3f
       -0.6297596 -0.21293978 -0.5384481 0.56739014
000070 f2 28 f5 3d ae d6 ff 3d 27 3e ab 3e 95 7f 40 be
       0.119707 0.12492119 0.33445856 -0.18798669
000080 50 18 8e be 7e 03 9f 3d a7 e2 6f bf 28 82 4f bc
       -0.27752924 0.07764338 -0.9370522 -0.012665309
000090 9f 6b 6c 3e f0 09 07 3f e3 c3 ca 3e 1a ed df be
       0.23087929 0.5274954 0.39602575 -0.43735582
0000a0 d2 27 5e 3e f9 a8 d1 be ee 51 2d 3e 24 1b c1 bc
       0.21694878 -0.40949228 0.16925785 -0.023572512
0000b0 e4 1d 0f bd ca 3a c6 3d 17 e9 d2 3d 14 5c 12 bf
       -0.034940615 0.09679182 0.102983646 -0.5717175
0000c0 56 a9 9e 3d 00 1a 05 bf 2f 93 ea 3e 39 65 fe 3e
       0.07747142 -0.519928 0.45815417 0.49686602
0000d0 c0 bc eb be 80 01 9c 3e 35 83 08 3d 78 28 ea 3d
       -0.46042442 0.30469894 0.033328254 0.114335
0000e0 6d de 99 bd e4 58 87 be 70 56 81 3d 0c 95 80 3d
       -0.075131275 -0.26435006 0.06315315 0.062784284
0000f0 06 f6 60 be 3b be 42 bc fc f6 0a bf 90 7d 39 3c
       -0.2196885 -0.011886175 -0.5428312 0.01132144
000100 d0 03 01 3e 05 cf 3b bf 6f b6 d3 be e4 f3 91 3d
       0.1259911 -0.7336276 -0.41350123 0.071265966
000110 0a 44 10 bd 2f 5d d6 3d 71 cd e3 bc ac c4 81 bf
       -0.035221137 0.10466992 -0.027807923 -1.0138144
000120 b0 37 2a 3c ca ec d3 be 40 9e fb 3c ce 03 38 bd
       0.0103892535 -0.41391593 0.030715108 -0.044925503
000130 e7 71 3a bf 67 49 ed 3d 41 78 71 3e 9a d8 6f 3e
       -0.7283005 0.11586266 0.2358103 0.2342247
000140 34 d9 f1 3d 9f 94 a8 bd 38 ba 2c 3e f0 a0 c7 3e
       0.11809006 -0.08231472 0.16867912 0.38989973
000150 b1 0f af 3e f2 4a 05 3e 53 4d 29 3e f2 3b 98 be
       0.3419166 0.1301687 0.16533403 -0.29733235
000160 ee a1 01 3e c3 6b 06 bf c6 32 bd bd a3 2e dc 3e
       0.12659428 -0.5250818 -0.092382 0.4300433
000170 94 25 27 3e 3d 6c 06 be 48 f8 a4 3d 7a 36 a5 bd
       0.16322929 -0.13127227 0.080551684 -0.08067031
000180 45 3c 3a be 8e 3b 6e bf 7f f7 1f be 37 f7 af 3e
       -0.18187054 -0.93059623 -0.15621756 0.34368297
000190 ce ad 0e be 56 ad 49 3d 2b 5e 2a 3e 00 d8 0b be
       -0.13933489 0.04923757 0.16637485 -0.13656616
0001a0 a3 9e 5f 3d 24 07 78 bd 20 91 de 3c f8 1e 6b 3e
       0.054594647 -0.060553685 0.02716881 0.22961032
0001b0 10 29 e7 3d db 02 6e 3e c2 46 e0 be ba 8d 17 ba
       0.11287129 0.23243277 -0.43803984 -0.0005781312
0001c0 3e fa 8b 3e 5d da bb be f8 68 24 3d 57 b2 04 3d
       0.27339357 -0.36690035 0.04013917 0.03239664
0001d0 51 86 bc 3d 6e 3d 9e 3e da 82 28 bd d5 00 af 3e
       0.09205306 0.30906242 -0.041140415 0.34180322
0001e0 85 de 06 be cb c4 f3 bd 2c f4 39 3f a8 cb 18 be
       -0.13170822 -0.1190277 0.726382 -0.14921439
0001f0 33 f1 ae be 31 04 33 3f 5f a1 4f 3e 80 95 90 3c
       -0.34168395 0.6992827 0.20276402 0.017649412
000200 64 f3 f4 3d 48 3f ad be 2c 1b 89 3e ab a2 89 3f
       0.119604856 -0.33837342 0.26778543 1.0752767
000210 60 56 d0 3c df 86 2c bf d2 82 3f 3d 77 35 fa bd
       0.025431812 -0.67393297 0.04675562 -0.12217229
000220 8a 0f 3c 3f a6 19 73 3e b0 88 16 bd 46 d4 1d bd
       0.7346121 0.23740253 -0.03675145 -0.038532518
000230 8c a4 5a bd a2 35 85 3e 4e 14 09 be 90 7e 50 3e
       -0.05337958 0.2601748 -0.13386652 0.2036078
000240 34 54 80 3d e2 13 70 3e d1 7a a3 3e 03 77 7b 3c
       0.062660605 0.23445085 0.3192964 0.015348199
000250 c7 f3 1d bd a9 3f da 3e e0 c2 13 3e 85 7b 5b 3d
       -0.038562562 0.42626694 0.14429808 0.053584594
000260 35 4c bc 3d a4 b4 a9 3d 98 99 b2 3e 6e 23 af bd
       0.09194223 0.082864076 0.34882808 -0.085516796
000270 47 86 aa bd 0e 97 19 3e ba fb ad be c4 70 48 3c
       -0.083263926 0.14999029 -0.33981115 0.012233917
000280 7a 91 0a 3e 9c 80 6a 3e 35 e3 a1 3c 56 20 f2 3c
       0.13532057 0.22900623 0.019761661 0.029556435
000290 9e 52 e9 bd e2 1d 2c bd bd 27 70 3e 61 e4 6f 3e
       -0.11392711 -0.042020686 0.23452659 0.23426963
0002a0 e7 d0 86 3d 3b f3 0b 3e a5 59 b8 3e 33 6d 9d be
       0.06582814 0.13667004 0.36005893 -0.30747375
0002b0 4a c7 32 3e 75 cb 4e bd 9d 4a 9b bd 52 76 25 be
       0.17458835 -0.050487 -0.07582591 -0.16158417
0002c0 21 4b 13 bd 2d 0f 47 3d 78 60 a6 3d 52 9e a6 be
       -0.03596032 0.048598457 0.08123869 -0.32542664
0002d0 32 41 86 3d 0c bb 02 be c0 1f 0f 3c 38 e1 f0 bd
       0.06555404 -0.12766665 0.008735597 -0.11761707
0002e0 be 46 ff 3d 81 cb e0 bd 54 be 93 bd dc aa ae 3d
       0.12464665 -0.10976315 -0.072140366 0.085286826
0002f0 32 dc 8b 3d 76 f0 cf 3d c4 e4 10 3d 6d b1 ed bd
       0.06829108 0.10153286 0.035374418 -0.11606107
000300 36 5f b9 bd 5c 05 b5 3d 4f ba 00 be da 1d ee 3d
       -0.09051363 0.08838913 -0.12571071 0.116267875
000310 c4 0f b3 bc 20 43 c1 3c 30 5d b5 bb e2 44 05 bd
       -0.021858104 0.023591578 -0.0055347905 -0.032536395
000320 a6 b0 01 bd f0 a7 1d 3d 54 c0 b9 bc 10 d9 b2 3c
       -0.031662606 0.038490236 -0.022674717 0.02183202
000330 ea 8f dd 3d 20 72 3e 3c dc 98 cf bd 84 2c c8 bd
       0.10818465 0.011623889 -0.101365775 -0.09774116
000340 30 1b a8 3d 54 de 38 3d 08 e5 ca 3c 17 eb 83 bd
       0.082083106 0.045133904 0.024767414 -0.06441324
000350 44 85 d8 bd fe 72 e3 3d c1 72 f8 bd 3d b1 83 bd
       -0.105722934 0.111059174 -0.121312626 -0.0643029
000360 9c a7 4e 3d 7a 83 e4 3d e8 da 36 bd 96 54 00 be
       0.050452814 0.1115789 -0.04464236 -0.12532267
000370 48 12 f6 3c c0 af 3e bb 90 66 a1 bc 4d 4d eb bd
       0.030038014 -0.0029096454 -0.019702226 -0.11489353
000380 16 7c b9 3d f8 dc 99 3c d0 0c 19 3d e2 e6 9e 3d
       0.09056871 0.018782124 0.037365735 0.07758881
000390 9e c2 e5 3d d6 de 05 bd c0 13 3a 3c 2e da a6 bd
       0.11218761 -0.032683216 0.011357248 -0.08147083
0003a0 72 96 c7 bd f5 47 85 bd b8 20 9e 3c 97 5f a7 bd
       -0.09745492 -0.06507865 0.01930271 -0.08172529
0003b0 8e ef 95 3d f0 70 38 3d 4e 9f 2d bd 18 76 82 3d
       0.07321082 0.04502958 -0.042388253 0.06370181
0003c0 6c cf c5 3d d6 27 30 bd ae 1e 93 3d 02 df a4 3d
       0.09658703 -0.04300674 0.07183586 0.08050348
0003d0 92 ef f7 3d ce 10 c2 bd e0 68 d3 3d 00 00 83 38
       0.12106241 -0.094758615 0.10322738 6.246567e-05
0003e0 80 30 0d 3c 00 56 bd b9 36 c0 aa bd f0 1e 41 bd
       0.00861752 -0.00036112964 -0.083374426 -0.047148645
0003f0 47 2a d7 bd 00 8a 89 bc 78 a4 03 3d a0 e0 bb bd
       -0.10506111 -0.016789436 0.03213927 -0.09173703

d2.bias f4 [40]
000000 0a a4 dd 3d 8b 36 31 3e 12 ab f6 bd c5 76 80 bd
       0.108223036 0.17305963 -0.12044348 -0.062726535
000010 f8 5e c8 bd 48 e8 c2 3d cc 3f 46 bd ae 1d 7d bd
       -0.09783739 0.095169604 -0.048400685 -0.061795883
000020 72 6e 46 3e f3 e4 56 3e 8c 26 6d bd 86 b6 d1 3c
       0.19378069 0.20985775 -0.05789809 0.02559973
000030 83 1d 31 be 21 18 f8 3d 87 06 2a be 34 65 89 b7
       -0.17296414 0.12113977 -0.16604052 -1.6378799e-05
000040 58 87 75 3e e1 37 49 3e b3 49 31 3e ff 76 bd 3d
       0.23977411 0.19650222 0.1731327 0.09251212
000050 f4 ed 7e ba 58 44 88 3c 68 7a a9 3c 1b 9c 02 3e
       -0.0009724789 0.016634151 0.02068825 0.12754862
000060 21 e2 5b bc e2 ac 95 3d da 7e 5f 3e 48 13 b3 3d
       -0.013420613 0.073083654 0.21825734 0.08743912
000070 8b 2a 14 3e 12 4d db 3d 31 33 76 bc 60 69 ee bd
       0.14469354 0.10708059 -0.015026853 -0.116411924
000080 1d e4 49 be df 2f 34 3e a8 95 ef 3c 11 18 89 3b
       -0.19715925 0.17596386 0.029246166 0.004183777
000090 19 03 af 3d 09 fc 47 3e 26 9f 83 3e f0 90 2f 3e
       0.08545513 0.19529738 0.25707358 0.17145133

d3.weight f4 [5, 40]
000000 12 59 29 3f ad bd ef be 30 18 22 bf 9b e4 e0 bd
       0.66151536 -0.468244 -0.6331816 -0.10981103
000010 f3 2b 15 3e 32 6d 81 be b8 11 d6 bc 1e 36 c9 bd
       0.14567547 -0.25278622 -0.026131496 -0.09824775
000020 3b 36 4e bf 81 67 8e 3e 00 7e e6 ba d4 5e 01 bf
       -0.805515 0.27813342 -0.0017585158 -0.5053532
000030 df 0c 54 3e 1a bc c2 3e 48 9d e4 3d f8 22 23 bf
       0.20708035 0.38034135 0.111628115 -0.63725233
000040 aa 58 1d bf 3a ca f2 3e d0 a3 0b 3f 69 75 0e bd
       -0.61463416 0.47419912 0.54546833 -0.03477994
000050 c5 2b 92 3c 68 66 5a 3d 5b 47 c4 bd 50 ec 12 bd
       0.017843137 0.05332032 -0.095839225 -0.035869896
000060 06 32 34 bf 6a 6d 5f bd 92 22 17 bf c5 2d 44 3e
       -0.7038883 -0.054547705 -0.59037125 0.19158085
000070 00 e8 ae bf 2e b9 dc 3d ea a4 9c 3e fe 85 1c bd
       -1.3664551 0.10777508 0.3059457 -0.038213722
000080 93 62 0c 3e 59 b1 09 bf 67 5b 33 bd 4b b9 b3 3e
       0.13709478 -0.53786236 -0.04378834 0.35102305
000090 41 59 0b 3e 4d 27 13 3f 00 de 5f bf 7b 8a c5 3e
       0.13608266 0.57481843 -0.8744812 0.38582215
0000a0 da cb 6e 3e dd 8e 64 be 6b aa d7 3e 88 e7 8f 3c
       0.2331995 -0.22320123 0.42122206 0.017566457
0000b0 4c 08 df bd c4 51 1e bf 22 37 39 bd e5 b7 db 3e
       -0.108902544 -0.61843514 -0.045218594 0.42913738
0000c0 4a e4 77 3d ec 9b 7f bf a9 8a 16 3e ec 97 d6 3e
       0.060520448 -0.9984729 0.14701332 0.41912782
0000d0 7e fc 89 3f fd 0e a8 bf 71 c8 19 3f f9 d8 a9 3e
       1.078018 -1.3129574 0.60071474 0.3317335
0000e0 4d f5 08 3e eb e9 b7 be c8 15 f2 3d 21 9b 52 bc
       0.13374825 -0.35920653 0.11820561 -0.012854368
0000f0 28 cb ea 3d 67 c9 17 3e de 76 eb 3d 7f 1c 77 be
       0.1146453 0.14822923 0.114972815 -0.24131964
000100 70 16 82 be 98 90 d3 3d 6a 2b fb bd 62 70 10 bd
       -0.25407743 0.103303134 -0.1226414 -0.035263427
000110 fc 87 9c be 30 cf 94 3d 22 dc 5c 3f 1c d9 bb 3d
       -0.30572498 0.072660804 0.86273396 0.0917227
000120 cb 00 23 3f 40 1f 94 3e 96 9b 08 be c5 06 b6 bd
       0.63673085 0.28930092 -0.13340601 -0.0888801
000130 f8 ae c5 3e 28 08 9c be 1c 25 cf be 5c a7 68 bf
       0.38610053 -0.30474973 -0.40458 -0.9088037
000140 10 90 17 be a1 bc 01 3f d6 88 fb bd 18 46 81 bd
       -0.14801049 0.5067845 -0.12281959 -0.063121974
000150 14 23 f4 bd e3 97 2a 3e 45 ed 03 3e 26 50 ee 3d
       -0.11920753 0.16659503 0.1288348 0.11636381
000160 77 3f a5 3e 1a 24 25 3e 5d a5 1d 3e e1 76 29 3e
       0.32274982 0.16127053 0.15395112 0.16549255
000170 4f 96 59 bf 5a d3 cd 3e 80 02 89 bf ab 56 1a 3e
       -0.8499498 0.4020031 -1.0703888 0.15072124
000180 e0 bc 6d 3e 10 25 ed 3e 21 7c 88 bd 04 ca eb bd
       0.23216581 0.4631734 -0.06664301 -0.11513141
000190 1e 8d 88 bc 00 07 82 bc 4d 89 01 be 1c 12 2d bf
       -0.016668852 -0.015872478 -0.12650032 -0.6760576
0001a0 9c ad 57 bc 8c 5f 57 3e 45 13 fe 3e 84 05 2e bf
       -0.01316395 0.21032542 0.49624076 -0.67977166
0001b0 95 f6 dd 3e 0c 42 8b 3d 5a 92 00 bf 4e 2e fa 3d
       0.4335219 0.06799707 -0.50223315 0.12215863
0001c0 ea cd 4a bf 8c 4d 98 3e 65 67 7a bd 1e d2 07 bf
       -0.7922045 0.29746664 -0.06113376 -0.5305499
0001d0 df 65 d0 3d b8 17 9e 3e 3a bd 1e 3f 9e ce e3 bc
       0.1017568 0.3087747 0.62007487 -0.027808484
0001e0 bd 35 3b bf 9c 2c 5d 3e 1f e1 30 be 73 68 20 3e
       -0.73128873 0.21599048 -0.17273377 0.15664844
0001f0 08 7c 09 bd a2 6f d6 3e 78 5f fb bc ec 9c 03 c0
       -0.03356555 0.41882044 -0.030685171 -2.0564528
000200 3e 73 f4 bc e6 fa af 3e b4 2e 7e bd 7f a5 4b bd
       -0.029840108 0.34371108 -0.06205626 -0.049718376
000210 9e d9 53 bf f2 92 bc 3e 61 e2 7c 3e e2 91 9d 3e
       -0.8275393 0.3683086 0.24695732 0.30775362
000220 f7 7e 3a 3d b2 13 7b bd 7a f8 7c bf 35 de cf 3c
       0.04553124 -0.06129808 -0.98816645 0.025374511
000230 9a 0c 91 bd 78 63 0d bd 90 33 ec bb 4d 94 25 bc
       -0.07082482 -0.03451869 -0.007208295 -0.010106158
000240 02 4a ef 3e 01 3b 73 3e cb 3d f4 bc 9a ea 72 be
       0.4673615 0.23752977 -0.029814621 -0.23722306
000250 f9 1b 5a bf 28 42 f2 bd de af a4 be d0 0a a6 bd
       -0.8519893 -0.118290246 -0.32165426 -0.08107531
000260 d4 41 4c 3e d8 6d 1d bf a4 c7 de 3d 53 09 bf 3e
       0.19946986 -0.61495733 0.10877922 0.373118
000270 11 46 a7 bd 89 14 89 be 10 5a bf 3d 01 32 71 3d
       -0.08167661 -0.2677348 0.0934335 0.058885578
000280 28 70 6f 3e 47 5c 03 bf 22 24 cb 3e a2 04 66 bd
       0.23382628 -0.5131268 0.39676005 -0.056156762
000290 c0 31 9b bd 90 48 70 3e 4a 31 dc bd 3c fe 7c 3d
       -0.075778484 0.2346518 -0.10751589 0.061765894
0002a0 db 98 e0 3e ed 50 70 3e f2 2b ec 3d fc ab 06 bf
       0.4386662 0.2346837 0.115318194 -0.5260618
0002b0 b0 90 c3 bd 1d 24 90 3d 46 7c 0b 3e ab a4 cd bd
       -0.09549081 0.07038138 0.13621625 -0.100411735
0002c0 f0 aa 25 bf 90 27 68 bf 87 21 5d 3e d2 16 a7 bb
       -0.64713955 -0.9068537 0.21594821 -0.005099156
0002d0 8d cd 16 3e b1 69 0d 3e 55 42 66 bd c2 a2 e3 3e
       0.14726849 0.1380985 -0.056215603 0.44460112
0002e0 f2 7e f3 bc 88 5c 44 bf 3d dd 24 bf d2 8c c9 3e
       -0.029723618 -0.7670369 -0.6440008 0.3936525
0002f0 18 3e 6c 3f 54 9e 1c 3d 05 63 d6 be 02 7b 4d bd
       0.9228225 0.03823693 -0.4187242 -0.050166138
000300 47 6d 83 be 6b 8a d3 3e a5 1b 9e bd 17 62 8d be
       -0.2566931 0.41316542 -0.077201165 -0.276139
000310 58 d6 3b bf 1d d0 15 bf 09 35 72 3c c7 d9 9d 3e
       -0.7337394 -0.5852068 0.014783152 0.30830213

d3.bias f4 [5]
000000 b2 e5 da bd 67 fe 8b bd f6 e5 0f 3e 72 48 15 3d
       -0.10688342 -0.06835633 0.14052567 0.036446042
000010 dc 41 73 3c
       0.014847245
